name: "CaffeNet"
layers {
  name: "data"
  type: DATA  top: "data"
  top: "label"
  data_param {
    source: "../databases/t3-rand1-train-lmdb"
    batch_size: 16
    backend: LMDB
  }
 transform_param {
    mean_file: "../databases/t3-rand1-train-mean"
    #mirror: true
  }
  include: { phase: TRAIN }
}
layers {
  name: "data"
  type: DATA
  top: "data"
  top: "label"
  data_param {
    source: "../databases/t3-rand1-val-lmdb"
    batch_size: 4270 #  all=42776-9*N
    backend: LMDB
  }
  transform_param {
    mean_file: "../databases/t3-rand1-train-mean"
    mirror: false
  }
  include: { phase: TEST }
}
layers {
  name: "conv1"
  type: CONVOLUTION
  bottom: "data"
  top: "conv1"
  blobs_lr: 1
  blobs_lr: 2
  weight_decay: 1.
  weight_decay: 0.
  convolution_param {
	num_output: 128 #256
    #num_output: 192
    #num_output: 64
    pad: 0
    kernel_size: 1
    weight_filler {
      type: "gaussian"
      std: 0.05
    }
    bias_filler {
      type: "constant"
    }
  }
}
layers {
  name: "relu1"
  type: RELU
  bottom: "conv1"
  top: "conv1"
}
layers {
   name: "norm1"
   type: LRN
   bottom: "conv1"
   top: "norm1"
   lrn_param {
     local_size: 3
     alpha: 0.0001
     beta: 0.75
   }
}


layers {
  name: "drop1"
  type: DROPOUT
  bottom: "norm1"
  top: "norm1"
  dropout_param {
    dropout_ratio: 0.6
  }
}

########################################################
layers {
  name: "conv2"
  type: CONVOLUTION
  bottom: "norm1"
  top: "conv2"
  blobs_lr: 1
  blobs_lr: 2
  weight_decay: 1
  weight_decay: 0
  convolution_param {
    num_output: 64
    group: 1
    kernel_size: 1
    weight_filler {
      type: "gaussian"
      std: 0.05
    }
    bias_filler {
      type: "constant"
      value: 0
    }
  }
}
layers {
  name: "relu2"
  type: RELU
  bottom: "conv2"
  top: "conv2"
}

layers {
   name: "norm2"
   type: LRN
   bottom: "conv2"
   top: "norm2"
   lrn_param {
     local_size: 3
     alpha: 0.0001
     beta: 0.75
   }
}

layers {
  name: "drop2"
  type: DROPOUT
  bottom: "norm2"
  top: "norm2"
  dropout_param {
    dropout_ratio: 0.6
  }
}

#############################################

layers {
  name: "conv3"
  type: CONVOLUTION
  bottom: "norm2"
  top: "conv3"
  blobs_lr: 0.1
  blobs_lr: 0.1
  weight_decay: 1
  weight_decay: 0
  convolution_param {
    num_output: ###@1###
    group: 1
    kernel_size: 1
    weight_filler {
      type: "gaussian"
      std: 0.05
    }
    bias_filler {
      type: "constant"
      value: 0
    }
  }
}
layers {
  name: "relu3"
  type: RELU
  bottom: "conv3"
  top: "conv3"
}
layers {
  name: "pool3"
  type: POOLING
  bottom: "conv3"
  top: "pool3"
  pooling_param {
    pool: AVE
    kernel_size: 5
    stride: 1
  }
}

layers {
  name: "accuracy_final"
  type: ACCURACY
  bottom: "pool3"
  bottom: "label"
  top: "accuracy_final"
  include: { phase: TEST }
}
layers {
  name: "loss"
  type: SOFTMAX_LOSS
  bottom: "pool3"
  bottom: "label"
  top: "loss"
}

